saved_models/discriminator.pt (torch_old, 26303 bytes, 9 tensors)

weight f4 [64, 1]
-0.007993698 0.6112946 0.09186414 -0.6277691 -0.35378486 -0.8006168 0.54324406 0.055713408
-0.73377955 0.22379231 0.9423877 0.57374585 -0.38708353 -0.9987598 -0.35020933 -0.2615686
-0.29128402 -1.269655 0.5401829 -0.14701985 -0.429135 0.6403903 -0.61017215 0.018259918
0.20889384 0.004631121 0.4619989 -0.6071881 0.52367413 -0.48133865 -1.0469819 0.0077754054
-1.4361986 0.586303 -0.26142615 -0.3542405 0.24625772 -0.5028022 -1.0811498 0.20084007
0.07653093 0.1938472 0.10380772 0.22176085 0.46387094 0.4676256 0.4101516 1.2085638
-0.61484826 0.018720033 0.31237867 0.39609385 0.18704359 -0.8075324 -1.5022087 -0.83454764
1.1970025 -0.4585733 -0.8133737 0.72280467 0.6508269 0.05456643 0.67407554 -0.14659174
00000000: 00f8 02bc ce7d 1c3f 4423 bc3d 7ab5 20bf
00000010: 4a23 b5be 39f5 4cbf 0b12 0b3f be33 643d
00000020: fad8 3bbf d029 653e 5240 713f 02e1 123f
00000030: d02f c6be b9ae 7fbf a34e b3be 52ec 85be
00000040: 2e23 95be 0e84 a2bf 6d49 0a3f 5f8c 16be
00000050: 95b7 dbbe 9ef0 233f 3e34 1cbf d395 953c
00000060: 44e8 553e a9c0 973b 1f8b ec3e ae70 1bbf
00000070: 820f 063f 0572 f6be 8103 86bf d4c8 fe3b
00000080: 5bd5 b7bf f417 163f a6d9 85be 035f b5be
00000090: fc2a 7c3e a5b7 00bf 1e63 8abf 05a9 4d3e
000000a0: 40bc 9c3d e17f 463e 2499 d43d 4715 633e
000000b0: 7e80 ed3e 9f6c ef3e 64ff d13e 38b2 9a3f
000000c0: b266 1dbf c15a 993c 19f0 9f3e d0cc ca3e
000000d0: 5b88 3f3e 72ba 4ebf 6048 c0bf eaa4 55bf
000000e0: 6137 993f 1fca eabe 4239 50bf ba09 393f
000000f0: 979c 263f 0d81 5f3d 3790 2c3f 251c 16be

bias f4 [64]
-0.8289834 -0.5958883 1.1322955 1.3006274 1.0408065 -0.6030369 0.3867496 0.47475067
1.4394935 0.51250905 0.18780698 -0.93839294 1.3212314 1.2887771 -0.9658605 -0.6022383
0.143188 0.38453484 -0.90276325 0.17001234 0.10257496 -1.303237 -0.80211 0.77417994
-0.15801829 -0.059131656 -0.16573605 1.2978283 1.1405948 1.0555506 -0.25227734 0.19945809
-0.10817086 -0.2132533 -0.852745 0.81448895 -0.21726204 0.14759506 0.32595116 -0.5721266
-0.7900059 -0.18155594 -0.14167851 -0.7935088 -0.4851802 -0.15669525 -1.2752663 0.5056753
1.3611374 0.7928429 -1.2795308 -0.44721836 -0.24993122 0.83176994 0.31544507 -0.20970765
0.7803018 0.09881562 -0.60099703 -1.5606251 -0.3904024 0.31895316 -0.72632885 -0.5253045
00000000: 4238 54bf 238c 18bf 0fef 903f f57a a63f
00000010: 2639 853f a060 1abf 0b04 c63e 8512 f33e
00000020: 5341 b83f cb33 033f 7950 403e 853a 70bf
00000030: 1c1e a93f a6f6 a43f a242 77bf 4a2c 1abf
00000040: e09f 123e c0e1 c43e 7e1b 67bf b717 2e3e
00000050: d212 d23d 78d0 a6bf 1557 4dbf a830 463f
00000060: 8ccf 21be 0934 72bd b6b6 29be 3d1f a63f
00000070: 03ff 913f 481c 873f 7f2a 81be be3e 4c3e
00000080: af88 ddbd 135f 5abe 7f4d 5abf 5982 503f
00000090: f179 5ebe 2923 173e 12e3 a63e e476 12bf
000000a0: d43d 4abf cde9 39be 2c14 11be 6523 4bbf
000000b0: 8a69 f8be b874 20be ed3b a3bf f073 013f
000000c0: c039 ae3f c1f7 4a3f aac7 a3bf cef9 e4be
000000d0: f8ed 7fbe e0ee 543f 0482 a13e 9abd 56be
000000e0: dcc1 473f d85f ca3d f1da 19bf 90c2 c7bf
000000f0: d3e2 c7be d44d a33e b0f0 39bf 5b7a 06bf

weight f4 [64, 64]
-0.0048924685 0.20719117 0.28954005 0.18216552 -0.029327711 0.026511606 0.40710443 0.27295107
-0.17070381 0.49954998 -0.11656682 0.081692904 -0.0152337495 -0.38562104 0.07083386 0.16609217
-0.03363942 -0.043359056 0.20973235 -0.42447758 0.13890052 0.101181954 0.13810971 0.18884423
0.2625793 0.108070746 0.5329131 -0.22078586 0.3303577 -0.29020852 -0.088980876 0.36331043
-0.119364575 0.42576018 0.19919254 0.059479818 0.20526566 -0.21854396 -0.30399036 -0.0027889344
0.017680734 0.44058862 -0.1823085 0.22185151 0.05207236 0.25314102 -0.10145578 0.026373856
-0.11400822 0.05193108 -0.05182096 0.35716376 -0.12513071 -0.15709712 0.011716524 -0.17592968
0.21116638 0.19998835 0.18334357 -0.07126121 0.35330045 0.30756328 0.18179135 0.007557413
0.112711355 -0.08900576 -0.00887606 0.070780076 0.132707 0.18682161 -0.0684759 -0.1248418
0.018962197 -0.029262321 0.31441092 -0.012285821 0.107004955 -0.015567472 0.07626199 0.13208361
-0.0454303 -0.18456906 0.0034034748 0.26749218 -0.007543604 -0.20656605 0.028780824 0.1014907
0.011212812 -0.019960372 -0.10102127 0.09784145 -0.010105037 0.091921255 -0.031830955 -0.08176636
-0.058948636 -0.267608 0.33902887 -0.007082371 -0.051379822 -0.08387151 -0.061471872 -0.0868254
0.09457882 -0.14198256 -0.0956897 -0.08374913 -0.12935174 0.019910067 -0.03681235 0.0007729489
-0.025654333 -0.08815185 0.28529787 -0.013254411 0.041641146 0.12821232 -0.17073138 0.1339802
-0.03813166 0.006390417 0.06710971 -0.07518744 -0.09042738 -0.1504391 -0.05486021 0.5160495
0.025844216 -0.09160787 0.07678381 -0.09644699 0.04941254 -0.22946095 0.08651 0.025846673
-0.01986051 0.088575855 0.16704705 -0.11548192 -0.12578143 0.017719768 -0.09101175 -0.18946658
-0.10893772 0.4785568 -0.009979325 -0.0054774447 -0.22002526 -0.020616578 -0.36587918 0.04301565
0.097641505 1.9099285e-05 -0.18497096 -0.1413528 0.020492794 0.006019295 0.42264566 -0.047897864
0.289611 -0.070407115 -0.18030071 -0.07612246 0.14761922 0.42351043 0.52224594 -0.2254616
-0.029627338 -0.103765115 -0.09759108 -0.07768499 -0.1884215 -0.18372469 0.016357454 0.042775854
-0.013538691 -0.12307004 0.27257454 -0.10328995 -0.12338385 -0.1292356 0.65302634 0.21144743
-0.3062877 0.06446977 -0.30950683 0.00022203202 0.013886833 0.13233584 -0.25142375 -0.30586395
0.06195785 0.12660718 -0.063932694 -0.17353065 -0.4671225 0.029351216 0.035890546 0.0390836
-0.11943296 0.19445536 -0.07542107 -0.05344059 -0.22857217 0.12578644 0.083217375 -0.014524521
0.12508155 0.70384467 -0.45426512 -0.3963931 0.073759735 0.04289192 0.050919507 0.0061047366
0.17523934 0.107119665 0.009075078 -0.15251486 0.072661445 -0.24006663 0.33564055 0.14692123
0.52261674 0.10289763 -0.120705776 -0.26303682 0.19833258 0.7408171 0.7737125 0.012303601
0.12172134 0.16513231 -0.14338544 -0.207861 0.16739279 0.09285716 -0.2206297 0.015306441
-0.035327435 0.044078514 -0.39247552 0.18120417 0.022321768 0.016307669 0.7737353 0.08585371
-0.10921051 0.31858003 0.14394613 0.021876661 0.032547135 0.12407214 -0.0025876146 -0.18058488
00000000: 0051 a0bb ec29 543e 983e 943e 9989 3a3e
00000010: ab40 f0bc de2e d93c fe6f d03e 3ec0 8b3e
00000020: fbcc 2ebe 04c5 ff3e 96ba eebd 9c4e a73d
00000030: fa96 79bc 1f70 c5be 5811 913d 1114 2a3e
00000040: 7dc9 09bd 4499 31bd 14c4 563e 2055 d9be
00000050: f03b 0e3e 7c38 cf3d a26c 0d3e 6260 413e
00000060: cb70 863e 3254 dd3d fe6c 083f b015 62be
00000070: a524 a93e 3696 94be 9b3b b6bd d303 ba3e
00000080: 6a75 f4bd 3dfd d93e 21f9 4b3e 1ca1 733d
00000090: 2931 523e fdc9 5fbe a0a4 9bbe 8ec6 36bb
000000a0: 30d7 903c d594 e13e 14af 3abe 0b2d 633e
000000b0: d449 553d b39b 813e 0cc8 cfbd fc0d d83c
000000c0: 247d e9bd afb5 543d 3742 54bd 2bde b63e
000000d0: 4422 00be 11de 20be aaf6 3f3c e926 34be
000000e0: 003c 583e bfc9 4c3e 6bbe 3b3e 66f1 91bd
000000f0: cce3 b43e ef78 9d3e 8327 3a3e 2da4 f73b
00000100: 36d5 e63d a748 b6bd e56c 11bc 25f5 903d
00000110: 58e4 073e 2a4e 3f3e 183d 8cbd 0fad ffbd
00000120: 9c56 9b3c 89b7 efbc 78fa a03e 784a 49bc
00000130: 6a25 db3d b60e 7fbc 3f2f 9c3d ed40 073e
00000140: 1f15 3abd acff 3cbe d50c 5f3b bcf4 883e
00000150: 5630 f7bb 0d86 53be c3c5 eb3c 5bda cf3d
00000160: f1b5 373c ef83 a3bc 3de4 cebd 1961 c83d
00000170: 998f 25bc 3641 bc3d 2d61 02bd 1f75 a7bd
00000180: 2074 71bd ea03 89be 3195 ad3e 3c13 e8bb
00000190: a673 52bd d4c4 abbd eec9 7bbd 84d1 b1bd
000001a0: 8ab2 c13d e063 11be f6f8 c3bd aa84 abbd
000001b0: c874 04be 701a a33c 8cc8 16bd b99f 4a3a
000001c0: 0929 d2bc f588 b4bd 9012 923e 0729 59bc
000001d0: e88f 2a3d 174a 033e 35d4 2ebe 1b32 093e
000001e0: f22f 1cbd b466 d13b d170 893d dffb 99bd
000001f0: fd31 b9bd b50c 1abe 19b5 60bd d21b 043f
00000200: 40b7 d33c e89c bbbd d540 9d3d 0086 c5bd
00000210: ce64 4a3d d0f7 6abe 282c b13d 67bc d33c
00000220: 82b2 a2bc 4267 b53d 620e 2b3e c981 ecbd
00000230: d9cc 00be 0c29 913c 5e64 babd 8703 42be
00000240: bd1a dfbd 6605 f53e 5380 23bc 237c b3bb
00000250: 4d4e 61be 19e4 a8bc 8454 bbbe 2e31 303d
00000260: 45f8 c73d 6737 a037 0769 3dbe cabe 10be
00000270: 81e0 a73c 823d c53b 0365 d83e 8d30 44bd
00000280: e547 943e 9b31 90bd c0a0 38be 18e6 9bbd
00000290: 7e29 173e 5cd6 d83e e9b1 053f 68df 66be
000002a0: 08b5 f2bc ce82 d4bd d5dd c7bd 4f19 9fbd
000002b0: 91f1 40be 5322 3cbe 1100 863c bc35 2f3d
000002c0: 63d1 5dbc 250c fcbd e48e 8b3e ae89 d3bd
000002d0: acb0 fcbd 5656 04be bc2c 273f ad85 583e
000002e0: bed1 9cbe ba08 843d ae77 9ebe 44d1 6839
000002f0: 9985 633c 0c83 073e 9dba 80be 339a 9cbe
00000300: 84c7 7d3d 50a5 013e 25ef 82bd 05b2 31be
00000310: ae2a efbe f671 f03c f701 133d 2016 203d
00000320: 4599 f4bd 4e1f 473e 5d76 9abd 85e4 5abd
00000330: d30e 6abe 29ce 003e df6d aa3d 42f8 6dbc
00000340: 6115 003e 2a2f 343f 7095 e8be 09f4 cabe
00000350: 580f 973d 70af 2f3d f990 503d 3e0a c83b
00000360: f171 333e 8e61 db3d a3af 143c db2c 1cbe
00000370: 86cf 943d 07d4 75be 14d9 ab3e 8572 163e
00000380: 36ca 053f febb d23d 9734 f7bd c3ac 86be
00000390: b217 4b3e 31a6 3d3f 0612 463f 0b95 493c
000003a0: 0a49 f93d 7218 293e a2d3 12be 84d9 54be
000003b0: 0469 2b3e e52b be3d c1ec 61be dec7 7a3c
000003c0: 80b3 10bd ac8b 343d 8df2 c8be 968d 393e
000003d0: 24dc b63c a997 853c 8413 463f 12d4 af3d
000003e0: c3a9 dfbd ec1c a33e 9d66 133e af36 b33c
000003f0: 2550 053d 8919 fe3d f894 29bb 3eeb 38be

bias f4 [64]
0.14063285 0.21270712 -0.09086362 0.031151904 0.06276444 -0.047982156 -0.09017807 0.09421037
-0.15850894 0.07780063 -0.04545672 -0.33687988 0.20630153 -0.080535084 -0.07054817 -0.04352736
-0.0009837165 -0.026958048 0.02472472 -0.1607747 -0.0059085614 0.20687154 0.14020494 -0.13918465
-0.095956825 0.022659512 -0.11382159 0.10234513 -0.05950948 -0.05828133 0.37642825 0.116916366
-0.021177305 -0.022357667 -0.16043262 -0.15298669 -0.031907123 -0.15674092 -0.024414303 -0.01253722
-0.16661681 0.09003985 -0.13586353 -0.042691108 -0.11065364 -0.01558043 -0.13658956 0.06902803
-0.062506914 -0.08279005 0.2652758 0.20633078 0.19908226 -0.13481112 0.01605654 0.123997904
0.13995388 -0.010909773 0.13361411 0.28858113 -0.091591045 -0.12139934 0.102531575 -0.0837691
00000000: 0f02 103e e5cf 593e b516 babd 4732 ff3c
00000010: a58a 803d f088 44bd 48af b8bd 5ef1 c03d
00000020: 2b50 22be f055 9f3d d330 3abd 857b acbe
00000030: b540 533e 94ef a4bd 8f7b 90bd bf49 32bd
00000040: 0cf0 80ba 20d7 dcbc 7f8b ca3c 1fa2 24be
00000050: 9b9c c1bb 22d6 533e e291 0f3e 6c86 0ebe
00000060: 0385 c4bd 71a0 b93c 4b1b e9bd 539a d13d
00000070: 36c0 73bd 67b8 6ebd 34bb c03e d971 ef3d
00000080: 077c adbc 6d27 b7bc 7348 24be 8ba8 1cbe
00000090: 0bb1 02bd b180 20be 8100 c8bc e968 4dbc
000000a0: 999d 2abe d066 b83d cf1f 0bbe dfdc 2ebd
000000b0: 609e e2bd 0f45 7fbc 22de 0bbe 915e 8d3d
000000c0: a003 80bd d48d a9bd 3bd2 873e 6048 533e
000000d0: 38dc 4b3e ed0b 0abe 0189 833c 9df2 fd3d
000000e0: 1250 0f3e e8be 32bc 23d2 083e e8c0 933e
000000f0: 1694 bbbd 38a0 f8bd 13fc d13d 228f abbd

weight f4 [64]
1.5188614 2.2320826 1.5292009 1.4842733 1.9810971 2.264645 1.7585586 2.5685294
1.4647225 1.1539642 1.0554631 1.9938551 2.1312125 1.3005232 2.181862 1.3002539
1.8008189 1.0970345 1.4429365 1.5661932 1.396553 1.8270942 2.1570127 2.2746055
0.00016239325 2.3860548 2.016416 2.091415 1.3887832 1.2658896 2.31425 2.0782335
2.1617074 2.1596053 1.7908942 1.8219095 2.8111992 1.5857487 3.76212 1.5882883
1.275029 1.5067799 1.8815948 3.0998735 2.1131394 1.7061552 2.9725492 1.837095
1.2760086 2.3231664 1.5714046 2.0540462 1.2353896 1.7001697 1.3476574 2.4988616
1.229498 0.83674353 1.227661 1.2712095 2.110606 1.5891174 2.1402113 3.5831845
00000000: 0d6a c23f 71da 0e40 dbbc c33f abfc bd3f
00000010: 9794 fd3f f2ef 1040 7318 e13f c962 2440
00000020: 077c bb3f 19b5 933f 6a19 873f a536 ff3f
00000030: c965 0840 8b77 a63f a1a3 0b40 b86e a63f
00000040: 3c81 e63f a06b 8c3f 25b2 b83f 0579 c83f
00000050: 40c2 b23f 39de e93f 7f0c 0a40 2393 1140
00000060: 1b48 2a39 1fb5 1840 f60c 0140 bed9 0540
00000070: a6c3 b13f ac08 a23f ac1c 1440 c701 0540
00000080: 6a59 0a40 f936 0a40 053c e53f 5534 e93f
00000090: b0ea 3340 d0f9 ca3f 93c6 7040 084d cb3f
000000a0: 2634 a33f 2ade c03f 19d8 f03f 5464 4640
000000b0: ad3d 0740 4b63 da3f 3f3e 3e40 ee25 eb3f
000000c0: 4054 a33f c2ae 1440 c923 c93f 7e75 0340
000000d0: 3f21 9e3f 299f d93f 0a80 ac3f 59ed 1f40
000000e0: 3160 9d3f d334 563f ff23 9d3f feb6 a23f
000000f0: 2b14 0740 3368 cb3f 39f9 0840 e552 6540

bias f4 [64]
0.4260231 -0.65447736 -0.59107286 -0.00028839667 -0.5350344 -0.6899107 0.006318446 0.8430779
-0.028610125 -0.4485503 -0.3021669 -0.8874303 -0.6917824 0.6605844 -0.84424365 0.7743189
-0.44948334 0.71134424 0.9480222 -0.5758069 0.1328959 -0.89220184 -0.83025706 -0.4567114
-0.014249431 -0.92034614 -0.6615267 -0.78569263 -0.5601787 1.0064183 0.53946674 -0.7965054
0.088670984 -0.6412276 0.5915809 -0.41806504 0.91352683 0.68118614 1.3732537 0.20652212
0.41534084 0.16282973 -0.72364366 0.5597701 0.46242347 -0.57052493 0.6364845 -0.67290384
-0.27891153 0.57114196 -0.58127487 0.18831281 -0.13379838 -0.75145876 0.7010189 0.9176743
0.91522366 0.48587835 1.0128663 -0.2577068 -0.05225491 -0.5834084 0.43579134 1.2194122
00000000: b31f da3e d48b 27bf 8d50 17bf f233 97b9
00000010: 04f8 08bf fd9d 30bf f70a cf3b f4d3 573f
00000020: c85f eabc 63a8 e5be 9fb5 9abe a22e 63bf
00000030: a718 31bf 0f1c 293f 5a20 58bf c339 463f
00000040: ae22 e6be a81a 363f 95b1 723f 1568 13bf
00000050: dd15 083e 5767 64bf ba8b 54bf 14d6 e9be
00000060: 7276 69bc ce9b 6bbf d059 29bf 2723 49bf
00000070: df67 0fbf 51d2 803f 7e1a 0a3f c7e7 4bbf
00000080: 2299 b53d 7e27 24bf d971 173f 9f0c d6be
00000090: e5dc 693f 3762 2e3f c7c6 af3f 897a 533e
000000a0: 8ea7 d43e d6bc 263e b640 39bf 184d 0f3f
000000b0: c5c2 ec3e ec0d 12bf a6f0 223f 6d43 2cbf
000000c0: 7ecd 8ebe 5c36 123f 6ece 14bf 13d5 403e
000000d0: 7102 09be 9a5f 40bf fa75 333f b4ec 6a3f
000000e0: 194c 6a3f 0cc5 f83e 9aa5 813f 25f2 83be
000000f0: 3f09 56bd 415a 15bf 0b20 df3e b315 9c3f

running_mean f4 [64]
9.89545 -1.0412078 -2.2577665 0.56629556 -10.26345 1.2296357 3.8226666 -1.5898086
-2.142232 -2.4775105 4.3320255 2.0315492 1.8606195 4.1207967 1.6659914 7.8719974
3.018973 -5.018741 -5.324003 -6.2072773 8.106669 -1.3230432 -1.0586228 2.1795745
-1.2518045 8.119173 -0.24863361 1.8671447 -3.8000195 -3.477051 2.8720016 6.4007926
4.0331097 -1.6639555 -5.5343804 -4.7300363 -7.1606607 -3.6437693 -0.43943048 7.4297714
6.110097 -0.3416157 3.3751183 -4.687509 2.3969746 2.0228944 -4.814657 7.9048586
0.73065937 -4.060088 -4.486478 3.1203794 1.5878326 -3.0944877 1.8960338 -2.5119262
-5.587183 1.8632777 -2.6961167 1.442981 5.339335 -2.4138505 -2.7558103 0.5706253
00000000: c353 1e41 4c46 85bf 3f7f 10c0 bff8 103f
00000010: 1737 24c1 b464 9d3f 92a6 7440 d97e cbbf
00000020: 541a 09c0 888f 1ec0 f49f 8a40 e704 0240
00000030: c828 ee3f 91dd 8340 353f d53f 67e7 fb40
00000040: db36 4140 8799 a0c0 3c5e aac0 04a2 c6c0
00000050: ebb4 0141 7b59 a9bf f480 87bf 267e 0b40
00000060: 213b a0bf 22e8 0141 cf99 7ebe 99fe ee3f
00000070: 8533 73c0 0188 5ec0 e0ce 3740 4bd3 cc40
00000080: 3c0f 8140 7efc d4bf a519 b1c0 755c 97c0
00000090: 2224 e5c0 8433 69c0 08fd e0be b0c0 ed40
000000a0: ea85 c340 41e8 aebe f001 5840 1300 96c0
000000b0: 0868 1940 1a77 0140 ac11 9ac0 9af4 fc40
000000c0: 7e0c 3b3f 3eec 81c0 3a91 8fc0 4cb4 4740
000000d0: 193e cb3f 160c 46c0 3cb1 f23f 66c3 20c0
000000e0: 34ca b2c0 e27f ee3f 2d8d 2cc0 9ab3 b83f
000000f0: d5db aa40 877c 1ac0 325f 30c0 8014 123f

running_var f4 [64]
8.8065195 0.37763342 0.54489547 0.095580675 8.451232 0.3899854 0.86491835 0.455206
0.68854934 0.52851856 2.3347604 0.23930316 0.6448644 2.3467038 0.6864687 7.4688735
0.47424918 2.0886712 2.1784093 3.223426 5.76956 0.3870437 0.8526312 0.5593449
0.06535143 9.360291 5.759715 0.87629485 0.54850656 0.76646835 0.41204488 12.72758
1.1241719 0.5257139 4.752828 1.9175366 3.3619936 2.039181 0.281971 6.2895484
6.085322 0.13751014 1.4999967 7.053586 0.8080778 5.415801 1.631351 9.730798
0.31093922 4.788151 2.0020216 0.42723757 0.2729671 1.7421948 0.92567647 1.0062369
2.3581626 0.43734926 0.7150935 0.41901532 1.8829625 0.65121 0.6142646 0.5825254
00000000: 81e7 0c41 2b59 c13e 457e 0b3f cdbf c33d
00000010: 3f38 0741 2bac c73e 4a6b 5d3f c310 e93e
00000020: c544 303f fe4c 073f b76c 1540 e30b 753e
00000030: d515 253f 6530 1640 6abc 2f3f 0301 ef40
00000040: cad0 f23e caac 0540 0f6b 0b40 9d4c 4e40
00000050: 3ca0 b840 982a c63e 0a46 5a3f 3a31 0f3f
00000060: f8d6 853d c0c3 1541 964f b840 dc54 603f
00000070: ed6a 0c3f 4537 443f 8cf7 d23e 2ba4 4b41
00000080: dde4 8f3f 3095 063f 2b17 9840 d771 f53f
00000090: e72a 5740 f181 0240 815e 903e fb43 c940
000000a0: f5ba c240 75cf 0c3e e4ff bf3f fab6 e140
000000b0: 30de 4e3f 3e4e ad40 1cd0 d03f 59b1 1b41
000000c0: 6d33 9f3e 8838 9940 1f21 0040 e2be da3e
000000d0: 58c2 8b3e 3d00 df3f 22f9 6c3f 5fcc 803f
000000e0: 23ec 1640 3eec df3e 5e10 373f 2d89 d63e
000000f0: ea04 f13f b3b5 263f 7240 1d3f 6220 153f

weight f4 [1, 64]
1.2580519 0.9032288 1.1913714 0.85378265 -2.8952713 0.7292642 -0.7136923 0.8352167
0.32141036 1.3751401 0.48592028 -2.067303 1.0024877 -1.2595179 0.81365734 -1.2205381
1.1939285 -1.2850095 -1.2419772 -2.226843 0.5132241 0.68590605 -2.0317993 0.6889396
-0.06766416 -2.6600642 -2.562794 1.0180968 0.8252327 -1.3660812 0.84049714 -2.343558
-1.1256301 1.3001761 1.2748374 1.0120592 1.1335784 1.185885 -0.8786609 0.8092968
-1.5291924 0.9320424 0.67597497 -1.4495041 0.953722 -1.7706555 1.0834662 -2.3336897
0.9395539 -1.3329045 1.2919964 0.72787577 1.0723145 -3.3686104 -1.2427298 0.74678385
-1.3481885 0.8346647 -0.9712849 1.0941613 0.8987502 1.032983 0.9534743 0.8572157
00000000: d807 a13f 013a 673f dc7e 983f 8091 5a3f
00000010: 204c 39c0 0fb1 3a3f 8ab4 36bf c3d0 553f
00000020: e68f a43e 9704 b03f 8bca f83e b14e 04c0
00000030: 8451 803f e237 a1bf d94b 503f 983a 9cbf
00000040: a6d2 983f 317b a4bf 1cf9 9ebf 9984 0ec0
00000050: a862 033f 8a97 2f3f 0009 02c0 585e 303f
00000060: 8293 8abd 7e3e 2ac0 d104 24c0 ff50 823f
00000070: 7342 533f c0db aebf d22a 573f dbfc 15c0
00000080: a614 90bf 2c6c a63f df2d a33f 288b 813f
00000090: 1919 913f 14cb 973f ecef 60bf 132e 4f3f
000000a0: 94bc c3bf 559a 6e3f b20c 2d3f 5a89 b9bf
000000b0: 2027 743f d7a4 e2bf 05af 8a3f 2c5b 15c0
000000c0: 9b86 703f 9d9c aabf 2360 a53f 1156 3a3f
000000d0: 9a41 893f 5097 57c0 c511 9fbf 3a2d 3f3f
000000e0: 7191 acbf 96ac 553f 21a6 78bf 7a0d 8c3f
000000f0: 7e14 663f c938 843f e416 743f 7d72 5b3f
