saved_models/generator.pt (torch_old, 13327 bytes, 9 tensors)

weight f4 [32, 4]
000000 b6 b0 d0 be d0 03 e6 bd e0 a2 85 3e 0e 6e f6 be
       -0.4075982 -0.11231196 0.26100826 -0.4813084
000010 d0 69 eb bd 13 db 82 3e e8 2f 7f be 22 60 33 3e
       -0.114947915 0.25557765 -0.24920619 0.1751714
000020 58 c4 80 38 6f 5a 1f 3f bd 51 a1 3e 11 cb 62 3f
       6.1400875e-05 0.62247366 0.31507674 0.88591105
000030 8c a6 9b be a0 69 58 bd 3a 57 8a be 2c 1b 24 be
       -0.30400503 -0.052835107 -0.27019674 -0.1602599
000040 bb 0a 55 3f 39 1b 87 3f 9a d5 3d 3f b7 d1 2e 3f
       0.832195 1.0555183 0.74154055 0.6828875
000050 80 19 31 be 56 c5 9a be 60 82 f1 bc bc 69 f5 be
       -0.17294884 -0.3022868 -0.029481113 -0.4793223
000060 5a 3e f3 be b4 db 96 be 68 4d f2 bd 96 df a3 3e
       -0.47508508 -0.29464495 -0.1183117 0.3200652
000070 26 29 5f 3f 35 ea 85 3f 9b b8 6f 3f cb 22 a2 3f
       0.8717216 1.0462099 0.9364106 1.2666868
000080 fe 0b 85 be 3c 5d 0b be f0 52 ad bd e8 25 ea be
       -0.25985712 -0.13609785 -0.08463085 -0.45732045
000090 0c 48 46 3f bb 7f 8c 3f f9 ef 4c 3f 80 f4 59 3f
       0.77453685 1.097648 0.8005367 0.851387
0000a0 0b 73 86 3f 3d e4 11 3f 60 6b 59 3f 69 53 35 3f
       1.0503858 0.5698889 0.84929466 0.708304
0000b0 e6 51 71 3d 36 ed f2 bb df e2 e7 3d d4 d4 d0 3e
       0.058915995 -0.0074135317 0.11322569 0.40787375
0000c0 d7 d8 10 3f 66 ef be 3f ec 23 a6 3f ca d6 2a 3f
       0.5658087 1.4916809 1.2979712 0.6673399
0000d0 9e 4e b0 be d4 c9 71 be 80 38 13 3c 38 f2 25 3e
       -0.3443498 -0.23612148 0.008985639 0.1620568
0000e0 b7 8d db be 72 3c 82 be 6a 65 ae 3e 1e 4a 8f be
       -0.42881557 -0.2543674 0.34061748 -0.27986234
0000f0 d6 42 2d 3f 7a ac 2d 3f 4c ba 07 3f 4a 22 7c 3f
       0.6768011 0.67841303 0.5301864 0.9848982
000100 5a d0 73 bb 73 75 be 3e 00 ff 7d be c9 a3 12 3f
       -0.0037203045 0.37198982 -0.24804306 0.57281166
000110 ab da 61 be 55 99 2c be 53 d5 72 be 84 43 2b 3d
       -0.22056071 -0.16855367 -0.23714189 0.041812435
000120 90 e4 b5 bd 88 0b 4b be 20 20 35 be 60 ac 9b 3d
       -0.088814855 -0.19828618 -0.17688036 0.07601237
000130 eb 14 5a 3f 3c d3 11 3f 90 f1 67 3f 26 d9 21 3f
       0.8518817 0.56962943 0.9060297 0.6322197
000140 5d 85 a0 3f 08 1e 98 3f 78 ab 91 3f 10 cc 73 3f
       1.2540699 1.1884165 1.1380453 0.9523325
000150 2a 98 8f 3e 37 b0 07 3f 44 90 b8 3e c0 e0 0d 3f
       0.2804578 0.5300326 0.36047566 0.55421066
000160 26 24 82 3f 63 d0 96 3f 24 a4 10 3f cf 7b a9 3f
       1.0167282 1.1782345 0.5650046 1.3240908
000170 08 8c a6 3e 04 d4 65 3f 12 50 09 3e 14 a9 33 3f
       0.3252871 0.89776635 0.1340945 0.7017987
000180 f0 d6 c8 3e 5a 6e f2 3e 13 49 64 bd 3a 95 a2 3e
       0.39226484 0.47349817 -0.05573375 0.31754476
000190 a5 60 8e 3e a6 0e 1e be 31 50 9c 3e 50 6e 09 3d
       0.2780811 -0.15435275 0.3052993 0.033552468
0001a0 7b 00 29 3f f7 c0 b4 3d e9 81 85 3e 56 c8 23 3f
       0.6601636 0.088258676 0.26075676 0.63977563
0001b0 66 c7 49 be 49 e4 b1 3e c8 98 56 3d cd 9e d7 be
       -0.1970497 0.3474448 0.052391797 -0.42113343
0001c0 e5 20 b7 be c0 ae b6 be 14 b4 93 3e a0 99 f2 be
       -0.35767284 -0.356802 0.28848326 -0.47382832
0001d0 a1 9f 7c 3f fb 0a e0 3f 24 b5 21 3f 74 91 ad 3f
       0.98681074 1.7503351 0.63167024 1.3560014
0001e0 68 2d 99 3c 6c 10 5e 3f 84 8f a5 3e fd 28 a4 3e
       0.01869841 0.8674381 0.32336056 0.32062522
0001f0 4f 4e 32 3f b1 36 50 3f 12 93 17 3f 37 0c 85 3e
       0.6965074 0.8133345 0.59208786 0.25985882

bias f4 [32]
000000 64 6f ea be f6 69 96 3f 67 74 1c 3f 24 62 14 be
       -0.4578811 1.1751087 0.61115116 -0.14490563
000010 ae e2 35 3e 4a 6f 99 be 3c 08 a6 be cc 8e 24 3f
       0.17762253 -0.2996772 -0.32428157 0.6428039
000020 08 da d1 be 76 26 09 3d 96 4d 2e 3e a7 28 43 3f
       -0.40986657 0.033483945 0.17021784 0.76233906
000030 48 06 86 3f 02 22 d6 be 27 3a ab be 17 31 2d 3f
       1.0470667 -0.4182282 -0.33442804 0.6765303
000040 02 66 10 3f 94 ca 07 3f 38 8b 3d be d8 ca d1 3e
       0.5640565 0.53043485 -0.18510139 0.4097507
000050 83 8f e9 3e fe 30 0b 3d 0d 27 98 3f e1 83 49 3e
       0.45617303 0.03398227 1.1886917 0.19679214
000060 aa 73 57 3f e8 11 17 3f 56 df 41 3f ae 5a 31 3f
       0.84160864 0.590117 0.7573141 0.6927899
000070 dd af 8e be 0b 2f b5 3f 8c ef 45 3f 42 45 d9 3f
       -0.27868548 1.4154981 0.77318645 1.6974261

weight f4 [32, 32]
000000 19 61 20 3e 3f 16 9b be f6 4d 4b be 00 62 a9 39
       0.1566204 -0.3029041 -0.19853958 0.00032307208
000010 35 7f 4f 3d 89 c4 d8 bd 2e 0f 33 be 4a f6 ec 3d
       0.050658423 -0.10584361 -0.1748626 0.115704134
000020 ce 90 b2 3d 5f 54 54 bd 09 0b cc bd 8f 39 12 be
       0.087190256 -0.051838275 -0.09963042 -0.1427977
000030 73 fc 8d 3d 90 b6 14 3c 6a c0 a1 3d 3c 58 9b bc
       0.069329165 0.009076729 0.07898028 -0.018962972
000040 ca e9 0b 3e 31 41 b9 3d 60 a1 4b bd 02 1e b9 be
       0.13663402 0.090456374 -0.049714446 -0.36155707
000050 c3 3c 51 be a6 be 15 bf 81 b5 22 3e 10 74 19 3e
       -0.20433335 -0.5849403 0.15889551 0.1498568
000060 20 92 3f 3e 55 a7 2c bf 96 e2 40 be 22 1f 6c bd
       0.18708086 -0.6744283 -0.18836436 -0.057646878
000070 e3 8c e2 bd 5a 8f c8 3d d9 28 db 3c cb 6c 8d 3d
       -0.11062028 0.09792967 0.026752876 0.06905516
000080 c2 15 60 bd 5b f9 75 3e c4 5a ad be ac 1f 3c 3d
       -0.05470825 0.24020903 -0.3385831 0.045928642
000090 c9 aa 1f be 12 19 f1 3d 2e 4b ce 3d 01 6c 8e be
       -0.15592493 0.1177236 0.10072933 -0.27816775
0000a0 93 8c c1 bd 44 10 4a bf a4 7c 54 be 68 cf 83 be
       -0.094506405 -0.7893107 -0.20750672 -0.25744176
0000b0 dd f5 7a bd bc 68 2d bd 44 71 85 3c 5a 12 d6 bd
       -0.06126963 -0.04233621 0.01628936 -0.10452719
0000c0 ae d2 3e bd 83 22 cb 3e ae f1 b0 3d 76 8d ca bd
       -0.04658764 0.39674768 0.08639847 -0.09890263
0000d0 66 35 a1 be 8f 00 08 3e a1 ed 68 be 2a f6 4d be
       -0.31486052 0.13281463 -0.22746898 -0.20113435
0000e0 78 32 9e 3d 54 29 d6 3e 0a 95 03 3b 2c ff 73 bd
       0.0772447 0.41828406 0.0020077848 -0.059569523
0000f0 ea 8a 10 3d 3b f4 59 be 0f d7 ab 3d 24 7f 76 bd
       0.03528873 -0.21284573 0.083906285 -0.060179844
000100 02 2a 98 3d bf a5 45 3d b5 f2 cb 3d 2b d3 0e 3e
       0.07429887 0.04825377 0.09958402 0.13947742
000110 63 5b 23 be 40 4e 88 3c 21 b1 c2 bd 66 eb 64 bd
       -0.1595283 0.016638875 -0.09506441 -0.055888556
000120 7f 09 0b 3e c3 02 60 3d f0 43 87 3d 85 c4 a2 bd
       0.13577841 0.054690134 0.06604755 -0.079476394
000130 70 da 55 3b 79 c6 83 bd de 23 50 bd ac df 54 3b
       0.003263142 -0.0643434 -0.050815456 0.0032481952
000140 cf 1f e1 bc 3b e4 2f be 44 29 11 3d 2a fe 08 be
       -0.027480988 -0.17176907 0.035439745 -0.13378206
000150 ff b7 a2 3c 4d f1 77 bd 46 03 b5 bc 6b eb 50 be
       0.019863127 -0.060532857 -0.022096287 -0.20402305
000160 73 42 f4 bd 5c 7a a1 bd 34 c1 9c bd 3d ef b6 3c
       -0.11926737 -0.07884666 -0.07654038 0.022330875
000170 c7 c3 89 bd 39 d0 ad 3c c6 cc ff 3b ca a8 19 3e
       -0.06726795 0.021217452 0.0078063933 0.15005794
000180 3e f4 b0 3d ac e7 6c be b8 dd 32 be 0c c4 05 be
       0.086403355 -0.23135251 -0.17467391 -0.13063067
000190 89 5f ba bc 06 18 86 3d 93 3d 11 be e7 46 08 3e
       -0.022750633 0.06547551 -0.14183645 0.13308297
0001a0 a2 90 f7 3d cc 88 11 bd fc 66 3d be 2b fa 1a be
       0.120881334 -0.03553085 -0.18496317 -0.15134494
0001b0 14 1b 7c 3b 83 fb bb bd 79 c8 dc 3c 94 3d fa bd
       0.0038468288 -0.091788314 0.026951062 -0.12218776
0001c0 88 5c fa 3d b4 6d 00 be 66 ef b2 3d d7 d9 05 bd
       0.1222468 -0.12541848 0.08737068 -0.03267845
0001d0 a0 4b fe bd 04 04 c8 be 59 31 ad 3d 53 3a f7 bd
       -0.12416768 -0.39065564 0.08456678 -0.12071671
0001e0 f5 32 ab 3d 02 e0 1d bf 82 5f 39 3d 40 a5 3f 3e
       0.08359329 -0.61669934 0.0452571 0.18715382
0001f0 d5 c5 22 3e 9f 2b 1f 3e 25 2e 54 3d 95 ca 43 3d
       0.1589578 0.15543984 0.05180182 0.04780062
000200 fd b7 0c 3e 04 de 96 be 13 10 7d bd 86 de e4 bd
       0.13742061 -0.2946626 -0.061782908 -0.111752555
000210 29 c5 99 bd cc a3 95 3d 44 4a 25 3d 9f 54 e7 3d
       -0.075083084 0.073066324 0.04035403 0.11295437
000220 fa e5 e9 bd 9f 18 21 bb 84 26 1b be d2 60 b4 bd
       -0.11420818 -0.0024581326 -0.15151411 -0.088075295
000230 0f e6 49 bd b1 c1 9a bd 0c 2d 33 be cb d7 66 bd
       -0.049291667 -0.07556475 -0.17497653 -0.05635814
000240 f4 66 68 3d 6b 30 10 bd a0 f6 99 bb 0c 3e 1d bd
       0.05673881 -0.035202425 -0.0046985894 -0.03838925
000250 be bc dc 3d 7e 26 e2 be 0a b0 b6 bd fa b8 72 3e
       0.10778187 -0.44169992 -0.089202955 0.23703375
000260 6e 40 d5 bc 4d 0e aa be d4 08 49 3d 7c 41 14 3e
       -0.026031699 -0.33214036 0.049080685 0.14478105
000270 98 d7 fc bc 6f e8 15 3e 3f 4d 4a 3d 59 ab a7 3d
       -0.030864522 0.14639448 0.049390074 0.08186979
000280 c8 d5 20 be 9c ae 2d 3d b2 be 1b 3e 7e 98 f6 3d
       -0.15706551 0.04240285 0.15209463 0.12040804
000290 ac 61 16 be 18 fe d1 bc 67 2b 04 3e b7 aa 35 be
       -0.14685696 -0.025633857 0.12907182 -0.17740904
0002a0 98 18 b2 3c 25 aa 07 3e c9 03 0f be 62 78 45 3d
       0.021740243 0.13248499 -0.13966288 0.04821051
0002b0 c6 91 e8 bd ab 53 15 be 90 16 7c 3d d8 db 8d bd
       -0.11355929 -0.14582698 0.061544955 -0.069266975
0002c0 ce 9e 6a bd 19 80 9b 3d 2e fb c2 3d 44 69 0c bd
       -0.057280354 0.07592792 0.09520565 -0.034280077
0002d0 44 e7 30 bd 0b d8 0f be 98 c4 24 3e bb 1c 0b 3e
       -0.043189302 -0.14047258 0.1609062 0.13585179
0002e0 67 a1 25 3c 60 50 85 bd ec 53 30 be 23 26 28 3e
       0.010109282 -0.06509471 -0.17219514 0.16420798
0002f0 f6 36 b3 3d f1 4c 06 be 02 7d 5e 3d 43 80 34 3d
       0.08750717 -0.13115288 0.054318435 0.044067632
000300 be ed c8 bd da 03 d1 3e 4b 94 8a 3e 9e 67 80 3d
       -0.09810971 0.4082325 0.27066264 0.062697634
000310 ea a4 03 3f f8 e3 d3 3c 1b 89 29 3e 3b a3 75 3e
       0.51423514 0.02586554 0.16556208 0.23988049
000320 c6 22 88 3d 57 ea 72 3f 3b 59 b2 3e 63 b7 10 be
       0.066472575 0.94888824 0.34833702 -0.14132456
000330 72 5b b8 3e 28 b0 81 3c 95 ae ac bd 02 37 93 3c
       0.36007267 0.015831068 -0.084317364 0.017970566
000340 cc bc 85 3e 19 ec 36 bf 3d 86 2b 3e 7e d6 d4 3e
       0.26120603 -0.71454006 0.16750427 0.41569895
000350 6c 09 92 3e ea 9e aa 3e 2b fa ed 3d a5 9b a1 3d
       0.28522813 0.33324367 0.116199814 0.07891015
000360 56 86 9a 3e dd 18 cd 3e 1a 86 89 3e 83 8c 30 3d
       0.30180615 0.40058032 0.26860124 0.043102752
000370 46 62 d6 3d 54 04 04 3e 4b 26 ec 3d 28 6a 6d 3c
       0.10467963 0.12892276 0.11530741 0.014490642
000380 7e 6f dc 3d 73 dc 04 3e 7b 5e d4 3d 82 c0 81 3d
       0.10763453 0.1297472 0.10369583 0.06335546
000390 a8 1e 06 3f 3b ab b3 bd 4b b3 bc bd 5a ad 9d 3e
       0.5239053 -0.08772894 -0.09213885 0.3079632
0003a0 18 d5 2a be d3 a6 89 3f fc c3 d5 3e 66 a3 ac 3b
       -0.16682851 1.0754036 0.41751087 0.005268502
0003b0 df 4e a9 3e 80 b5 90 bb 85 0d 31 3e 87 e6 19 3e
       0.33067986 -0.0044161677 0.17290314 0.15029345
0003c0 7c 66 93 3e ce 33 59 bf ca 07 0c be 12 b7 88 3e
       0.28789127 -0.8484467 -0.13674846 0.26702172
0003d0 e5 e7 c1 3e 07 f7 33 3f ae 2f 48 3c 49 50 a1 3e
       0.37872234 0.7029881 0.012218399 0.31506565
0003e0 e8 ba ae 3d 22 db 5f 3e 08 e8 4d 3a f9 49 2b be
       0.08531743 0.21860936 0.0007854705 -0.16727437
0003f0 a0 09 49 3c 72 2b 79 3e 71 90 81 bc 58 e0 65 3e
       0.012270361 0.2433298 -0.015815945 0.22448862

bias f4 [32]
000000 47 fa a2 3d 32 65 8d 3e 6f 1a 3a be 0c 6f f1 bd
       0.07957893 0.27616268 -0.18174146 -0.11788759
000010 b1 e0 da bd ad 53 10 be e6 af da bd ae 88 d3 bd
       -0.10687388 -0.1409442 -0.10678081 -0.10328804
000020 f7 95 11 bd 4e d1 9e 3d 1c a5 59 bd d0 26 25 3e
       -0.03554341 0.077547655 -0.053135976 0.16128087
000030 7a ab da bd 7d 15 a3 3e a7 3a 8d be ea 38 c9 3e
       -0.10677238 0.31852332 -0.2758381 0.39301234
000040 84 6e 40 bd 97 52 da 3b 0a d1 15 be f8 15 43 3f
       -0.046980396 0.0066626775 -0.14630523 0.76205397
000050 f4 ea 0e be 8d fb 8e 3d a4 de d1 3e b5 6b f5 3d
       -0.13956815 0.06981573 0.40990174 0.11983434
000060 22 58 f5 3e 24 90 ff 3c fd 5f ba 3e 92 68 91 3d
       0.47918802 0.031196661 0.36401358 0.07100023
000070 a2 77 b2 bd f0 ea a2 bc 46 ea d2 3e 85 45 8a 3d
       -0.087142244 -0.019887418 0.4119436 0.06751541

weight f4 [1, 32]
000000 e5 a7 12 3e d7 2a 11 bf 3f 63 ec 3b 1a 87 73 3e
       0.14321859 -0.56705993 0.0072139795 0.23782006
000010 16 e1 82 3d c7 f9 93 bd 5e 6d 6e be 13 60 72 be
       0.06390588 -0.072253756 -0.23283908 -0.23669462
000020 e3 6a 69 3b bf 8c e7 3d d5 c9 1e 3e eb 9a 53 3e
       0.0035616688 0.11306142 0.1550668 0.20664565
000030 59 59 0f 3d 15 62 2b bf 4f 42 8c 3f 16 63 f3 3e
       0.034997318 -0.66946536 1.0957736 0.47536534
000040 fc b4 a0 bd 0c 2d 2d 3e 8c 31 c8 3d d8 5e e2 3e
       -0.0784702 0.16911715 0.09775075 0.44212985
000050 fb ab 4c 3f a5 bb 07 3e 1a 8a ba be b9 64 57 3e
       0.7994992 0.13255174 -0.36433488 0.21034516
000060 3d 19 88 be 82 6e 11 3e 28 18 5e be 93 49 72 be
       -0.26581755 0.14202312 -0.21688902 -0.23660879
000070 90 1a 94 be 9e 98 c5 3d 1e ab 4f bf e4 c7 0d be
       -0.28926516 0.0964825 -0.8112048 -0.13845783

weight f4 [32]
000000 73 5e 48 3f 84 05 63 3e 94 3a 5c 3f 25 b7 21 3f
       0.7826912 0.22170073 0.86026883 0.6317008
000010 c8 23 8e 3d 7d 6e 41 3f 18 2c 4a 3f 44 71 08 3e
       0.069404185 0.75559217 0.7897353 0.13324457
000020 fd 0d 44 3f f6 0b 4b 3f 9c 2d 22 3e 39 0f 35 3f
       0.76583844 0.79315126 0.15837711 0.7072635
000030 f8 dc a6 3e 2e ba 2e 3f f9 5f 02 3f 50 6d c8 3d
       0.3259046 0.6825284 0.5092769 0.09786475
000040 86 a7 c5 3e 4d 69 26 3f c8 3b 4f 3e c0 86 2c 3e
       0.38604373 0.65004426 0.20237648 0.16848278
000050 f4 4b 1f 3e c6 8a d2 3e ce 60 57 3f 8a c7 b9 3e
       0.15556318 0.411215 0.8413209 0.3628505
000060 24 fb 69 3f a3 01 67 3f d0 d4 cf 3e e8 03 25 3f
       0.91398835 0.9023687 0.4059205 0.64459085
000070 b0 b2 8a 3d 18 61 90 3e 30 f8 d3 3d 00 5d 17 3b
       0.06772363 0.28199077 0.103500724 0.0023096204

bias f4 [32]
000000 00 00 00 00 00 00 00 00 00 00 00 00 00 00 00 00
       0.0 0.0 0.0 0.0
000010 00 00 00 00 00 00 00 00 00 00 00 00 00 00 00 00
       0.0 0.0 0.0 0.0
000020 00 00 00 00 00 00 00 00 00 00 00 00 00 00 00 00
       0.0 0.0 0.0 0.0
000030 00 00 00 00 00 00 00 00 00 00 00 00 00 00 00 00
       0.0 0.0 0.0 0.0
000040 00 00 00 00 00 00 00 00 00 00 00 00 00 00 00 00
       0.0 0.0 0.0 0.0
000050 00 00 00 00 00 00 00 00 00 00 00 00 00 00 00 00
       0.0 0.0 0.0 0.0
000060 00 00 00 00 00 00 00 00 00 00 00 00 00 00 00 00
       0.0 0.0 0.0 0.0
000070 00 00 00 00 00 00 00 00 00 00 00 00 00 00 00 00
       0.0 0.0 0.0 0.0

running_mean f4 [32]
000000 00 00 00 00 00 00 00 00 00 00 00 00 00 00 00 00
       0.0 0.0 0.0 0.0
000010 00 00 00 00 00 00 00 00 00 00 00 00 00 00 00 00
       0.0 0.0 0.0 0.0
000020 00 00 00 00 00 00 00 00 00 00 00 00 00 00 00 00
       0.0 0.0 0.0 0.0
000030 00 00 00 00 00 00 00 00 00 00 00 00 00 00 00 00
       0.0 0.0 0.0 0.0
000040 00 00 00 00 00 00 00 00 00 00 00 00 00 00 00 00
       0.0 0.0 0.0 0.0
000050 00 00 00 00 00 00 00 00 00 00 00 00 00 00 00 00
       0.0 0.0 0.0 0.0
000060 00 00 00 00 00 00 00 00 00 00 00 00 00 00 00 00
       0.0 0.0 0.0 0.0
000070 00 00 00 00 00 00 00 00 00 00 00 00 00 00 00 00
       0.0 0.0 0.0 0.0

running_var f4 [32]
000000 00 00 80 3f 00 00 80 3f 00 00 80 3f 00 00 80 3f
       1.0 1.0 1.0 1.0
000010 00 00 80 3f 00 00 80 3f 00 00 80 3f 00 00 80 3f
       1.0 1.0 1.0 1.0
000020 00 00 80 3f 00 00 80 3f 00 00 80 3f 00 00 80 3f
       1.0 1.0 1.0 1.0
000030 00 00 80 3f 00 00 80 3f 00 00 80 3f 00 00 80 3f
       1.0 1.0 1.0 1.0
000040 00 00 80 3f 00 00 80 3f 00 00 80 3f 00 00 80 3f
       1.0 1.0 1.0 1.0
000050 00 00 80 3f 00 00 80 3f 00 00 80 3f 00 00 80 3f
       1.0 1.0 1.0 1.0
000060 00 00 80 3f 00 00 80 3f 00 00 80 3f 00 00 80 3f
       1.0 1.0 1.0 1.0
000070 00 00 80 3f 00 00 80 3f 00 00 80 3f 00 00 80 3f
       1.0 1.0 1.0 1.0
