saved_models/working_model_mean5_stddev0.8/discriminator.pt (torch_old, 4288 bytes, 3 tensors)

weight f4 [64, 1]
0.50669307 -0.34911624 -0.0074546314 0.62822556 -0.03533584 -0.26746893 -0.52622795 -0.01702222
-0.37295842 -0.45608717 0.7214779 -0.029099016 -0.43887055 0.022687273 0.5194185 0.30435476
-0.20016313 0.55850405 0.045436423 -0.01710011 -0.0015015621 -0.018344201 -0.35354456 0.009493949
0.77767867 0.3730174 0.017727753 -0.36345202 0.019610493 -0.42017546 -0.18395726 0.59164727
-0.41465527 -0.34031337 -0.73088914 -0.029536061 0.08137591 0.24976155 0.09625714 0.015627105
-0.7105261 -0.027109042 -0.35185203 -0.0032111942 -0.21524113 -0.395863 -0.00059034704 -0.35175568
0.113201104 -0.02928882 0.15021233 -0.3046778 -0.01791313 -0.16270024 0.37029687 -0.61717355
0.37561053 -0.017380985 -0.71909225 -0.0034407468 0.23354892 0.99168617 -0.3998611 -0.6822651
00000000: a3b6 013f 5dbf b2be fb45 f4bb 64d3 203f
00000010: 50bc 10bd b0f1 88be e0b6 06bf 2f72 8bbc
00000020: 68f4 bebe 4284 e9be c7b2 383f 0f61 eebc
00000030: a4b3 e0be a9da b93c 9cf8 043f 63d4 9b3e
00000040: 90f7 4cbe 1ffa 0e3f 8b1b 3a3d 8815 8cbc
00000050: 10d0 c4ba 9446 96bc cb03 b5be 828c 1b3c
00000060: f315 473f 23fc be3e cb39 913c 6216 babe
00000070: 2fa6 a03c 3d21 d7be 4b5f 3cbe 3276 173f
00000080: b24d d4be 8e3d aebe 8d1b 3bbf 9cf5 f1bc
00000090: 6aa8 a63d 7ec1 7f3e 7722 c53d 6a04 803c
000000a0: 0ae5 35bf c813 debc f325 b4be e672 52bb
000000b0: 2c68 5cbe 8eae cabe 85c1 1aba 5219 b4be
000000c0: fbd5 e73d 1cef efbc 43d1 193e bbfe 9bbe
000000d0: 8ebe 92bc e49a 26be 8d97 bd3e 16ff 1dbf
000000e0: 0650 c03e 9162 8ebc 6e16 38bf 277e 61bb
000000f0: 7327 6f3e 25df 7d3f 98ba ccbe eda8 2ebf

bias f4 [64]
0.340598 0.9313316 0.012108191 -0.16135673 -0.24695323 -0.103574604 1.0523655 -0.36794955
0.7503837 0.12431505 -0.52166855 -0.07595626 0.8980441 -0.3837602 0.52742976 -0.59322304
0.38114727 -0.94626164 0.120915115 -0.020376727 -0.06287575 -0.0074080154 0.7074474 -0.002760822
-0.31050238 -0.7968112 -0.32846665 -0.16282055 -0.31510735 0.8571559 0.35320207 -0.039213736
0.8427157 0.6775953 1.2267883 -0.11378668 -0.022326611 0.21744385 0.04085632 -0.6134889
0.21225959 -0.19428992 0.7034818 0.011084431 0.41138425 0.8018402 -0.05440709 0.70864797
0.027896866 -0.10633058 -0.3422486 0.5981303 -0.021367557 -0.70690674 -0.8409553 -0.40142378
-0.22583763 0.0065790615 1.1490095 -0.008010898 -0.44423142 0.04523805 0.8108421 0.34987527
00000000: dc62 ae3e bf6b 6e3f 6f61 463c b33a 25be
00000010: 4fe1 7cbe ec1e d4bd eab3 863f e263 bcbe
00000020: 2519 403f e498 fe3d 128c 05bf f58e 9bbd
00000030: 38e6 653f 387c c4be a305 073f 77dd 17bf
00000040: bc25 c33e 343e 72bf 58a2 f73d 18ed a6bc
00000050: 00c5 80bd f0be f2bb 461b 353f e8ee 34bb
00000060: 2bfa 9ebe d2fb 4bbf c82c a8be 6eba 26be
00000070: c055 a1be 926e 5b3f e7d6 b43e 959e 20bd
00000080: 37bc 573f e376 2d3f 6607 9d3f fe08 e9bd
00000090: 4ce6 b6bc 9aa9 5e3e f558 273d 9c0d 1dbf
000000a0: 945a 593e f0f3 46be 6217 343f 799b 353c
000000b0: f5a0 d23e 6645 4d3f f8d9 5ebd f469 353f
000000c0: f887 e43c d9c3 d9bd 353b afbe 111f 193f
000000d0: 040b afbc d7f7 34bf d948 57bf 6b87 cdbe
000000e0: fb41 67be 2b95 d73b be12 933f 2440 03bc
000000f0: 4d72 e3be 894b 393d 5993 4f3f da22 b33e

weight f4 [1, 64]
0.050387453 -0.04462596 0.00041341616 0.037701212 -0.005558957 -0.025236601 0.015106198 0.01659096
0.004989962 0.032638643 0.051817108 -0.0062716603 0.0059174183 -0.069914624 0.09527387 -0.07757365
0.0074386457 -0.075717896 0.006919792 -0.0023958609 -0.017498316 -0.0029349052 0.0050594807 -0.0012246567
0.010780944 -0.078454144 -0.055640504 -0.05976913 -0.06467671 0.005475908 0.007717358 0.0075555434
0.005315607 0.0050970553 0.10223693 -0.008225872 -0.002694982 -0.032978214 0.0016874283 -0.056340195
0.11357392 -0.012369504 0.0050544385 0.0006692439 0.0071130963 0.00512252 -0.0006591868 0.0054952484
0.0021459037 -0.0086236 0.05684703 0.005417665 0.0043412154 -0.093208976 -0.07604103 0.06387746
0.01419366 -0.00042293264 0.15644471 0.0004889428 -0.018076476 -0.04162741 0.0051577515 0.13325463
00000000: 1363 4e3d b6c9 36bd c7bf d839 966c 1a3d
00000010: e927 b6bb fdbc cebc fd7f 773c c4e9 873c
00000020: d682 a33b 19b0 053d 2d3e 543d 8082 cdbb
00000030: e7e6 c13b 662f 8fbd f21e c33d efde 9ebd
00000040: e2bf f33b fc11 9bbd 6cbf e23b e003 1dbb
00000050: a158 8fbc 8a57 40bb 00ca a53b a984 a0ba
00000060: 8ea2 303c 91ac a0bd 4ce7 63bd 7ad0 74bd
00000070: 3975 84bd 3f6f b33b e4e1 fc3b 7e94 f73b
00000080: 8b2e ae3b 3305 a73b 9861 d13d cfc5 06bc
00000090: 4c9e 30bb 2a14 07bd b32c dd3a fac4 66bd
000000a0: 7299 e83d 76a9 4abc b49f a53b 3370 2f3a
000000b0: fa14 e93b d0da a73b 47cd 2cba 7c11 b43b
000000c0: 4aa2 0c3b 004a 0dbc 6ed8 683d ab86 b13b
000000d0: c140 8e3b 59e4 bebd 66bb 9bbd 30d2 823d
000000e0: 868c 683c 0fbd ddb9 0b33 203e 652c 003a
000000f0: 1e15 94bc 8181 2abd 5b02 a93b e773 083e
