saved_models/working_model_mean5_stddev0.8/generator.pt (torch_old, 8840 bytes, 5 tensors)

weight f4 [32, 4]
0.5770398 0.53069437 -0.176827 -0.25100964 0.5089402 0.031852957 -0.18270205 -0.11605467
0.016988724 0.52740264 0.2324379 0.5916795 0.39598835 -0.19313988 0.33020768 -0.23258401
-0.22204272 0.16678001 -0.15144026 0.12507612 0.2025854 -0.39041537 0.08084524 -0.4159122
0.096986115 0.5460298 0.47248477 -0.24623485 -0.387448 -0.21583788 -0.2663212 0.52769095
0.18810773 0.023022428 0.14638445 0.29874462 -0.18125655 -0.027723946 0.62829906 0.5241628
0.3408266 0.46742105 -0.20694403 -0.3262888 -0.20613238 -0.02637254 0.34239325 0.44730732
0.4199622 -0.35221165 -0.094064765 0.47175142 0.37418813 0.071913 0.4713191 0.19889012
-0.023372147 0.13565592 -0.2184192 0.07376742 0.2446068 -0.3725231 0.37903604 -0.46970525
0.00944724 0.2212119 -0.22755913 0.23439556 -0.3128538 -0.41132137 -0.13624647 -0.26993865
-0.22947943 -0.18209043 -0.41396242 -0.43037438 0.5368734 -0.40237284 0.33825207 0.46842164
-0.1310323 0.009094124 -0.2631597 -0.28268042 0.04613356 -0.14975318 -0.38878286 -0.474252
0.023410665 0.41793996 0.12974375 0.22679773 0.10511953 0.46802673 -0.029981535 0.53739256
0.058527928 -0.013671145 0.6556278 0.5690372 0.1383454 0.37701145 0.0086207185 -0.16680981
-0.34145963 0.35535192 0.22757514 0.42808998 0.3976644 0.08718238 -0.41354957 -0.5537129
-0.25715926 -0.31520998 -0.23674741 -0.3740224 0.23372221 0.077462845 0.16569157 -0.45923755
-0.17013854 -0.37618166 0.08928424 -0.056390703 -0.17932558 -0.2210871 -0.45639938 -0.12873507
00000000: e1b8 133f 96db 073f 2312 35be 5684 80be
00000010: e849 023f 3f78 023d 3f16 3bbe 12ae edbd
00000020: f02b 8b3c dc03 073f 3304 6e3e 4f78 173f
00000030: fcbe ca3e 76c6 45be fb10 a93e 812a 6ebe
00000040: 2b5f 63be 61c8 2a3e 2813 1bbe f413 003e
00000050: 8c72 4f3e 86e4 c7be 3092 a53d 72f2 d4be
00000060: a8a0 c63d 9cc8 0b3f 86e9 f13e fd24 7cbe
00000070: 965f c6be 9b04 5dbe 415b 88be c116 073f
00000080: 509f 403e 8899 bc3c cee5 153e 0ef5 983e
00000090: 519b 39be 541d e3bc 35d8 203f 892f 063f
000000a0: d380 ae3e d051 ef3e 23e9 53be 530f a7be
000000b0: 5e14 53be 3a0b d8bc 2b4e af3e 7705 e53e
000000c0: 4905 d73e 1655 b4be 07a5 c0bd 6789 f13e
000000d0: 9695 bf3e 1f47 933d bd50 f13e daa9 4b3e
000000e0: f276 bfbc 63e9 0a3e 48a9 5fbe 6013 973d
000000f0: 347a 7a3e 59bb bebe 0311 c23e 357d f0be
00000100: 99c8 1a3c 5f85 623e 4305 69be 6405 703e
00000110: 602e a0be b798 d2be 3284 0bbe 6635 8abe
00000120: a8fc 6abe ea75 3abe e2f2 d3be 085a dcbe
00000130: 8970 093f d003 cebe 602f ad3e f6d4 ef3e
00000140: 552d 06be 85ff 143c debc 86be 7dbb 90be
00000150: 8bf6 3c3d e658 19be 8c0e c7be 28d1 f2be
00000160: b9c7 bf3c 3afc d53e 8cdb 043e aa3d 683e
00000170: e848 d73d 33a1 ef3e d69b f5bc 8f92 093f
00000180: fbba 6f3d f0fc 5fbc 39d7 273f 6cac 113f
00000190: 6baa 0d3e a507 c13e ea3d 0d3c 31d0 2abe
000001a0: ccd3 aebe b0f0 b53e 7509 693e 9c2e db3e
000001b0: ab9a cb3e ad8c b23d c5bc d3be 21c0 0dbf
000001c0: 61aa 83be 3463 a1be ea6d 72be dd7f bfbe
000001d0: e054 6f3e d7a4 9e3d 0dab 293e 2f21 ebbe
000001e0: cc38 2ebe e29a c0be a8da b63d f0f9 66bd
000001f0: 20a1 37be a864 62be 2ead e9be 20d3 03be

bias f4 [32]
0.55802315 0.45484233 0.023760084 0.3895767 0.44222933 -0.38733238 -0.2314105 0.17300048
0.14684674 -0.04630547 0.5306392 0.5316692 0.21631046 0.19002695 0.45407382 -0.025060141
-0.025807004 0.010347966 0.54772645 -0.02273473 0.22925887 0.3333448 0.03448857 -0.35059395
0.39115235 0.57710624 0.4323095 -0.16155438 0.454807 -0.4769011 -0.3710339 -0.0699954
00000000: 9bda 0e3f 18e1 e83e 82a4 c23c 9976 c73e
00000010: e26b e23e 6e50 c6be e0f6 6cbe 0a27 313e
00000020: fe5e 163e ceaa 3dbd f8d7 073f 791b 083f
00000030: 7d80 5d3e 6d96 423e 5d7c e83e ed4a cdbc
00000040: 3669 d3bc 848a 293c cd37 0c3f 2f3e babc
00000050: d6c2 6a3e 2bac aa3e e343 0d3d 0d81 b3be
00000060: 1f45 c83e 3cbd 133f ac57 dd3e 836e 25be
00000070: 77dc e83e 622c f4be 28f8 bdbe c059 8fbd

weight f4 [32, 32]
0.24435066 0.24709953 0.0691723 -0.0908054 0.094746396 0.16508336 0.22246866 0.20455211
0.1911796 0.2541602 0.08614475 0.038962014 0.2003638 0.10093992 0.15099984 -0.10719316
-0.098210976 0.05569179 -0.044219162 0.23200479 0.054365568 -0.003315098 0.029076483 0.23879859
0.06877879 0.22620219 -0.011899936 0.09060153 -0.13294011 0.044581015 0.16116343 -0.08632454
0.20208299 0.26384977 0.30159628 0.124102354 -0.087115526 0.1306761 0.034630522 -0.10635859
0.18280527 0.13741018 0.088611044 0.10046082 0.2449355 0.2985911 0.16827829 0.011537682
0.13216445 -0.16093408 -0.10507023 0.30606163 -0.22650605 -0.08784261 0.0100600775 -0.025044924
0.027399002 0.01646397 0.21670729 0.0070801084 -0.25478464 0.15681872 -0.05820334 -0.029027402
-0.073620275 0.040756024 0.007400369 -0.16426532 -0.058190223 -0.019311532 -0.0033685858 -0.20558478
-0.026347717 -0.060787812 0.07097477 -0.07205135 -0.14914419 0.080984674 0.0036755526 -0.19125701
-0.19499019 0.023277618 -0.02665866 0.08750371 0.06457804 0.083718866 -0.121064514 -0.10280818
0.09982762 0.027535364 0.048357323 0.026747596 -0.17789628 -0.11799756 -0.09595596 -0.1511048
0.31454498 0.100754954 0.18065393 0.0809448 0.24988328 0.1298381 0.1942012 -0.08671322
0.12815902 0.07008784 0.19834746 0.11291317 0.031119429 0.24240896 0.18590212 -0.12016123
0.14131814 -0.07293124 -0.17733298 0.053612474 -0.043750916 -0.13860983 0.027924802 0.18617804
0.20064959 0.02353245 0.24862805 -0.15874743 -0.1922814 -0.12761822 0.081207946 -0.042790815
0.0107206255 0.15464057 0.13873823 -0.0028866827 0.085674986 0.08390339 0.0302632 0.06125337
-0.053201415 -0.007097915 -0.09756315 0.02256675 -0.013501868 -0.09612617 0.16497563 0.07457061
-0.047069073 0.12413411 -0.106639214 -0.17000248 -0.15215556 0.0041248053 0.062114492 -0.064660236
-0.13805926 -0.07270721 -0.06954179 0.08428644 0.16804938 0.12261759 0.080531254 -0.13666847
-0.0018779933 -0.10494856 -0.113526054 0.042036563 -0.08055673 -0.005720526 -0.14426884 0.11361031
0.091087535 -0.17151873 0.092878446 -0.10788059 -0.065796584 0.057936147 0.086741224 0.14300613
0.000572592 -0.03010811 -0.15847948 -0.055232957 -0.10897618 0.031724527 0.11666484 -0.009250537
0.010194078 -0.09891233 0.13089742 0.049606755 -0.098011464 -0.08847125 -0.06066455 -0.044240594
0.30802497 0.14843495 0.1900265 0.1476369 0.17119522 -0.16445515 -0.016834594 0.21434948
0.28811803 0.30346122 -0.056599166 0.25573316 0.09041885 0.32271916 0.12468094 -0.03386129
0.11549395 -0.16002817 -0.05893303 0.12118312 -0.15775011 -0.07497706 0.011167307 0.08530752
0.3253642 0.28041628 0.2832158 0.030968763 -0.15234555 -0.16063106 0.0032333136 0.039713606
-0.014174287 -0.16572198 -0.18601163 0.12337524 -0.029180925 0.17163442 -0.19087031 0.087687634
0.12213239 0.0056627514 0.1267702 0.04716519 0.12208583 -0.063806444 -0.13649505 0.13772951
-0.16596277 0.006522283 -0.08594096 -0.18546052 -0.17478102 0.08315036 -0.17511329 0.1590401
0.08242205 -0.19657764 -0.032932695 -0.114800684 -0.16648872 0.061298475 -0.0568071 -0.17086871
00000000: 0f37 7a3e a907 7d3e 35aa 8d3d 2ef8 b9bd
00000010: 660a c23d 9d0b 293e d3ce 633e 1c76 513e
00000020: 96c4 433e 4921 823e a96c b03d a296 1f3d
00000030: 2b2c 4d3e 97b9 ce3d b49f 1a3e 1688 dbbd
00000040: d622 c9bd 131d 643d 271f 35bd aa92 6d3e
00000050: 6eae 5e3d 1d42 59bb ce31 ee3c 9e87 743e
00000060: e5db 8c3d 8ca1 673e f3f7 42bc 4c8d b93d
00000070: 7421 08be 959a 363d 0708 253e ecca b0bd
00000080: d8ee 4e3e 5117 873e d46a 9a3e 6029 fe3d
00000090: a069 b2bd f5cf 053e bcd8 0d3d 88d2 d9bd
000000a0: 4e31 3b3e 41b5 0c3e b579 b53d 67be cd3d
000000b0: 5fd0 7a3e efe0 983e 2551 2c3e 8c08 3d3c
000000c0: 1e56 073e e7cb 24be 102f d7bd 1cb4 9c3e
000000d0: 34f1 67be d4e6 b3bd 06d3 243c 032b cdbc
000000e0: df73 e03c 73df 863c 84e8 5d3e 4100 e83b
000000f0: 2273 82be 1695 203e a066 6ebd e0ca edbc
00000100: 3ac6 96bd caef 263d cb7e f23b 2b35 28be
00000110: df58 6ebd 3833 9ebc 7ec3 5cbb d184 52be
00000120: 2bd7 d7bc a4fc 78bd 385b 913d a88f 93bd
00000130: 41b9 18be 4bdb a53d 8ae1 703b e1d8 43be
00000140: 82ab 47be b4b0 be3c 4363 dabc 2535 b33d
00000150: 7e41 843d cc74 ab3d acf0 f7bd 188d d2bd
00000160: 6c72 cc3d d891 e13c 5412 463d c61d db3c
00000170: 712a 36be b4a8 f1bd 8f84 c4bd 37bb 1abe
00000180: 0a0c a13e 9d58 ce3d 58fd 383e 63c6 a53d
00000190: 67e1 7f3e 47f4 043e aedc 463e b396 b1bd
000001a0: 1e3c 033e 378a 8f3d 991b 4b3e 053f e73d
000001b0: 2cee fe3c 0e3a 783e 205d 3e3e 1717 f6bd
000001c0: b4b5 103e f95c 95bd c796 35be c198 5b3d
000001d0: 2934 33bd bcef 0dbe 8ec2 e43c 75a5 3e3e
000001e0: 1677 4d3e 20c7 c03c 5a98 7e3e b08e 22be
000001f0: 6ae5 44be 5aae 02be 5a50 a63d 6c45 2fbd
00000200: 90a5 2f3c 195a 1e3e 6511 0e3e 802e 3dbb
00000210: 5e76 af3d 8ad5 ab3d 88ea f73c d0e4 7a3d
00000220: bae9 59bd a095 e8bb 30cf c7bd e8dd b83c
00000230: f036 5dbc ccdd c4bd 5fef 283e 7ab8 983d
00000240: 80cb 40bd 063a fe3d a965 dabd 2115 2ebe
00000250: abce 1bbe 6029 873b c46b 7e3d 966c 84bd
00000260: 685f 0dbe 85e7 94bd ed6b 8ebd 5e9e ac3d
00000270: 2315 2c3e ee1e fb3d 92ed a43d d2f2 0bbe
00000280: 0027 f6ba 45ef d6bd 5980 e8bd 882e 2c3d
00000290: edfa a4bd 4073 bbbb 36bb 13be 86ac e83d
000002a0: 1a8c ba3d 9ba2 2fbe 0e37 be3d 80f0 dcbd
000002b0: 5cc0 86bd 744e 6d3d 62a5 b13d 3370 123e
000002c0: 001a 163a 48a5 f6bc 7248 22be f43b 62bd
000002d0: e72e dfbd 94f1 013d faed ee3d 908f 17bc
000002e0: 1005 273c 8c92 cabd f909 063e 7430 4b3d
000002f0: 3cba c8bd 6a30 b5bd 647b 78bd a035 35bd
00000300: 73b5 9d3e 55ff 173e 4f96 423e 212e 173e
00000310: cd4d 2f3e ee66 28be b4e8 89bc 6e7e 5b3e
00000320: 3584 933e 455f 9b3e 87d4 67bd 75ef 823e
00000330: 852d b93d 723b a53e b858 ff3d 23b2 0abd
00000340: 1888 ec3d 6dde 23be c363 71bd db2e f83d
00000350: 3f89 21be 938d 99bd 15f7 363c b6b5 ae3d
00000360: 2396 a63e b992 8f3e a901 913e 34b2 fd3c
00000370: 7900 1cbe 787c 24be 00e6 533b bcaa 223d
00000380: 453b 68bc 06b3 29be d579 3ebe 28ac fc3d
00000390: d60c efbc efc0 2f3e 8273 43be 9395 b33d
000003a0: 8c20 fa3d 9a8e b93b 0cd0 013e 4930 413d
000003b0: 2308 fa3d f4ac 82bd 5cc5 0bbe f708 0d3e
000003c0: 25f2 29be e0b8 d53b d001 b0bd 5de9 3dbe
000003d0: ccf9 32be bc4a aa3d e650 33be 68db 223e
000003e0: e4cc a83d a64b 49be 6fe4 06bd 9f1c ebbd
000003f0: 057c 2abe 1c14 7b3d 90ae 68bd 35f8 2ebe

bias f4 [32]
0.033293612 0.016831556 -0.032095116 0.09247936 -0.13918607 -0.12069498 0.07308174 -0.002068574
0.019416394 0.2502407 -0.09221583 0.087260336 -0.15322459 0.046810497 -0.08174539 0.10296813
0.062079452 0.2956884 -0.013469725 0.13111989 -0.17084187 -0.028292855 0.08919029 0.13909104
-0.0676648 -0.0005196703 0.049943626 -0.03225709 -0.16734989 0.12067093 -0.0057356623 0.1568991
00000000: e25e 083d 55e2 893c 2b76 03bd d265 bd3d
00000010: cb86 0ebe ee2e f7bd e1ab 953d ea90 07bb
00000020: 210f 9f3c 8d1f 803e a7db bcbd 8cb5 b23d
00000030: e8e6 1cbe 5dbc 3f3d 216a a7bd f4e0 d23d
00000040: 0647 7e3d 7864 973e 1fb0 5cbc 4b44 063e
00000050: 2cf1 2ebe 6bc6 e7bc 66a9 b63d e26d 0e3e
00000060: d893 8abd 7c3a 08ba b091 4c3d 0320 04bd
00000070: c55d 2bbe 5222 f73d 39f2 bbbb 28aa 203e

weight f4 [1, 32]
0.11102237 0.15894951 -0.0763888 0.23535915 -0.12909344 -0.054284237 0.20474926 -0.12824617
0.13598293 0.08117262 -0.119859464 -0.070743166 0.054019272 0.20921467 -0.05051585 0.2870769
0.1323152 0.15249225 -0.05012412 -0.07632811 -0.026406392 -0.0065831514 -0.15829234 0.2921557
-0.1368904 -0.10066881 0.0075359917 -0.08963197 -0.07890465 0.27082106 -0.13048914 0.29097784
00000000: b25f e33d a9c3 223e bb71 9cbd fd01 713e
00000010: 1231 04be 2659 5ebd caa9 513e f752 03be
00000020: 1c3f 0b3e d53d a63d e178 f5bd cbe1 90bd
00000030: 5043 5d3d 5f3c 563e b5e9 4ebd befb 923e
00000040: a37d 073e ee26 1c3e f34e 4dbd ea51 9cbd
00000050: 3852 d8bc 7ab7 d7bb 6317 22be 6f95 953e
00000060: ff2c 0cbe 732b cebd 7bf0 f63b f790 b7bd
00000070: c398 a1bd 0fa9 8a3e f29e 05be 0cfb 943e
